[baseNet]
name=MobileNetV2

[convolutional]
batch_normalize=1
filters=160
size=1
stride=1
pad=1
activation=relu

[convolutional]
batch_normalize=1
filters=320
size=3
stride=1
pad=1
activation=relu

[convolutional]
batch_normalize=1
filters=160
size=1
stride=1
pad=1
activation=relu

[upsample]
stride=2

[route]
layers=3

[convolutional]
batch_normalize=1
filters=160
size=1
stride=1
pad=1
activation=relu

[route]
layers=-1, -3

[upsample]
stride=2

[convolutional]
batch_normalize=1
filters=80
size=1
stride=1
pad=1
activation=relu

[convolutional]
batch_normalize=1
filters=160
size=3
stride=1
pad=1
activation=relu

[convolutional]
batch_normalize=1
filters=80
size=1
stride=1
pad=1
activation=relu

[route]
layers=2

[convolutional]
batch_normalize=1
filters=80
size=1
stride=1
pad=1
activation=relu

[route]
layers=-1, -3

[convolutional]
batch_normalize=1
filters=40
size=1
stride=1
pad=1
activation=relu

[convolutional]
batch_normalize=1
filters=80
size=3
stride=1
pad=1
activation=relu

[convolutional]
batch_normalize=1
filters=40
size=1
stride=1
pad=1
activation=relu

[convolutional]
size=1
stride=1
pad=1
filters=2
activation=linear

[upsample]
stride=8
